…
01/31/2025 06:37:59 - WARNING - auto_gptq.nn_modules.qlinear.qlinear_cuda - CUDA extension not installed.
01/31/2025 06:37:59 - WARNING - auto_gptq.nn_modules.qlinear.qlinear_cuda_old - CUDA extension not installed.
01/31/2025 06:48:47 - WARNING - fms_mo.utils.aiu_utils - qcfg['qmodel_calibration_new'] was not 0 and has been set to 0 now. We do not want to run calibration during verification!
01/31/2025 06:49:45 - INFO - fms_mo.utils.aiu_utils - Mapping for aten_node_name to original_module_name is done!
01/31/2025 06:52:14 - INFO - fms_mo.prep - --- Before model quantization --- 
 BertForQuestionAnswering(
  (bert): BertModel(
    (embeddings): BertEmbeddings(
      (word_embeddings): Embedding(30522, 768, padding_idx=0)
      (position_embeddings): Embedding(512, 768)
      (token_type_embeddings): Embedding(2, 768)
      (LayerNorm): LayerNorm((768,), eps=1e-12, elementwise_affine=True)
      (dropout): Dropout(p=0.1, inplace=False)
    )
    (encoder): BertEncoder(
      (layer): ModuleList(
        (0-11): 12 x BertLayer(
          (attention): BertAttention(
            (self): BertSdpaSelfAttention(
              (query): Linear(in_features=768, out_features=768, bias=True)
              (key): Linear(in_features=768, out_features=768, bias=True)
              (value): Linear(in_features=768, out_features=768, bias=True)
              (dropout): Dropout(p=0.1, inplace=False)
            )
            (output): BertSelfOutput(
              (dense): Linear(in_features=768, out_features=768, bias=True)
              (LayerNorm): LayerNorm((768,), eps=1e-12, elementwise_affine=True)
              (dropout): Dropout(p=0.1, inplace=False)
            )
          )
          (intermediate): BertIntermediate(
            (dense): Linear(in_features=768, out_features=3072, bias=True)
            (intermediate_act_fn): GELUActivation()
          )
          (output): BertOutput(
            (dense): Linear(in_features=3072, out_features=768, bias=True)
            (LayerNorm): LayerNorm((768,), eps=1e-12, elementwise_affine=True)
            (dropout): Dropout(p=0.1, inplace=False)
          )
        )
      )
    )
  )
  (qa_outputs): Linear(in_features=768, out_features=2, bias=True)
)

01/31/2025 06:52:18 - WARNING - fms_mo.fx.dynamo_utils - No bmm and matmul are found. Likely SDPA is enabled. Will patch nothing.
01/31/2025 06:57:52 - INFO - __main__ - Distributed environment: DistributedType.NO
Num processes: 1
Process index: 0
Local process index: 0
Device: cuda

Mixed precision type: fp16

01/31/2025 06:57:55 - INFO - __main__ - 
…
01/31/2025 06:58:24 - WARNING - fms_mo.utils.aiu_utils - Missing keys in qcfg file and user provided qcfg {'mapping', 'tb_writer', 'force_calib_once'}
01/31/2025 06:58:24 - WARNING - fms_mo.utils.aiu_utils - qcfg['qmodel_calibration_new'] was not 0 and has been set to 0 now. We do not want to run calibration during verification!
01/31/2025 06:58:34 - INFO - fms_mo.utils.aiu_utils - Mapping for aten_node_name to original_module_name is done!
01/31/2025 06:58:40 - INFO - fms_mo.prep - --- Before model quantization --- 
 BertForQuestionAnswering(
  (bert): BertModel(
    (embeddings): BertEmbeddings(
      (word_embeddings): Embedding(30522, 768, padding_idx=0)
      (position_embeddings): Embedding(512, 768)
      (token_type_embeddings): Embedding(2, 768)
      (LayerNorm): LayerNorm((768,), eps=1e-12, elementwise_affine=True)
      (dropout): Dropout(p=0.1, inplace=False)
    )
    (encoder): BertEncoder(
      (layer): ModuleList(
        (0-11): 12 x BertLayer(
          (attention): BertAttention(
            (self): BertSdpaSelfAttention(
              (query): Linear(in_features=768, out_features=768, bias=True)
              (key): Linear(in_features=768, out_features=768, bias=True)
              (value): Linear(in_features=768, out_features=768, bias=True)
              (dropout): Dropout(p=0.1, inplace=False)
            )
            (output): BertSelfOutput(
              (dense): Linear(in_features=768, out_features=768, bias=True)
              (LayerNorm): LayerNorm((768,), eps=1e-12, elementwise_affine=True)
              (dropout): Dropout(p=0.1, inplace=False)
            )
          )
          (intermediate): BertIntermediate(
            (dense): Linear(in_features=768, out_features=3072, bias=True)
            (intermediate_act_fn): GELUActivation()
          )
          (output): BertOutput(
            (dense): Linear(in_features=3072, out_features=768, bias=True)
            (LayerNorm): LayerNorm((768,), eps=1e-12, elementwise_affine=True)
            (dropout): Dropout(p=0.1, inplace=False)
          )
        )
      )
    )
  )
  (qa_outputs): Linear(in_features=768, out_features=2, bias=True)
)

01/31/2025 06:58:43 - WARNING - fms_mo.fx.dynamo_utils - No bmm and matmul are found. Likely SDPA is enabled. Will patch nothing.
01/31/2025 06:59:01 - INFO - fms_mo.prep - Please provide a valid quantized checkpoint or run calibration for best results.
01/31/2025 06:59:01 - INFO - fms_mo.prep - --- Quantized model --- 
BertForQuestionAnswering(
  (bert): BertModel(
    (embeddings): BertEmbeddings(
      (word_embeddings): Embedding(30522, 768, padding_idx=0)
      (position_embeddings): Embedding(512, 768)
      (token_type_embeddings): Embedding(2, 768)
      (LayerNorm): LayerNorm((768,), eps=1e-12, elementwise_affine=True)
      (dropout): Dropout(p=0.1, inplace=False)
    )
    (encoder): BertEncoder(
      (layer): ModuleList(
        (0-10): 11 x BertLayer(
          (attention): BertAttention(
            (self): BertSdpaSelfAttention(
              (query): QLinear(768,768, Nbits_W,A=8,8,QntzerW,A=SAWB,PACT2)
              (key): QLinear(768,768, Nbits_W,A=8,8,QntzerW,A=SAWB,PACT2)
              (value): QLinear(768,768, Nbits_W,A=8,8,QntzerW,A=SAWB,PACT2)
              (dropout): Dropout(p=0.1, inplace=False)
            )
            (output): BertSelfOutput(
              (dense): QLinear(768,768, Nbits_W,A=8,8,QntzerW,A=SAWB,PACT2)
              (LayerNorm): LayerNorm((768,), eps=1e-12, elementwise_affine=True)
              (dropout): Dropout(p=0.1, inplace=False)
            )
          )
          (intermediate): BertIntermediate(
            (dense): QLinear(768,3072, Nbits_W,A=8,8,QntzerW,A=SAWB,PACT2)
            (intermediate_act_fn): GELUActivation()
          )
          (output): BertOutput(
            (dense): QLinear(3072,768, Nbits_W,A=8,8,QntzerW,A=SAWB,PACT2)
            (LayerNorm): LayerNorm((768,), eps=1e-12, elementwise_affine=True)
            (dropout): Dropout(p=0.1, inplace=False)
          )
        )
        (11): BertLayer(
          (attention): BertAttention(
            (self): BertSdpaSelfAttention(
              (query): QLinear(768,768, Nbits_W,A=8,8,QntzerW,A=SAWB,PACT2)
              (key): QLinear(768,768, Nbits_W,A=8,8,QntzerW,A=SAWB,PACT2)
              (value): QLinear(768,768, Nbits_W,A=8,8,QntzerW,A=SAWB,PACT2)
              (dropout): Dropout(p=0.1, inplace=False)
            )
            (output): BertSelfOutput(
              (dense): QLinear(768,768, Nbits_W,A=8,8,QntzerW,A=SAWB,PACT2)
              (LayerNorm): LayerNorm((768,), eps=1e-12, elementwise_affine=True)
              (dropout): Dropout(p=0.1, inplace=False)
            )
          )
          (intermediate): BertIntermediate(
            (dense): QLinear(768,3072, Nbits_W,A=8,8,QntzerW,A=SAWB,PACT2)
            (intermediate_act_fn): GELUActivation()
          )
          (output): BertOutput(
            (dense): Linear(in_features=3072, out_features=768, bias=True)
            (LayerNorm): LayerNorm((768,), eps=1e-12, elementwise_affine=True)
            (dropout): Dropout(p=0.1, inplace=False)
          )
        )
      )
    )
  )
  (qa_outputs): Linear(in_features=768, out_features=2, bias=True)
)

01/31/2025 07:08:47 - INFO - __main__ - Distributed environment: DistributedType.NO
Num processes: 1
Process index: 0
Local process index: 0
Device: cuda

Mixed precision type: fp16

01/31/2025 07:08:49 - INFO - __main__ - Sample 40937 of the training set: {'input_ids': [101, 2247, 2007, 2060, 5876, 1010, 2129, 2146, 2442, 1037, 4539, 2022, 5117, 2000
…
01/31/2025 09:12:52 - INFO - __main__ - Gradient Accumulation steps = 1
01/31/2025 09:12:52 - INFO - __main__ - Total optimization steps = 33198
01/31/2025 09:12:53 - WARNING - auto_gptq.nn_modules.qlinear.qlinear_cuda - CUDA extension not installed.
01/31/2025 09:12:53 - WARNING - auto_gptq.nn_modules.qlinear.qlinear_cuda_old - CUDA extension not installed.
01/31/2025 09:13:03 - INFO - fms_mo.utils.aiu_utils - Mapping for aten_node_name to original_module_name is done!
01/31/2025 09:13:06 - INFO - fms_mo.prep - --- Before model quantization --- 
 BertForQuestionAnswering(
  (bert): BertModel(
    (embeddings): BertEmbeddings(
      (word_embeddings): Embedding(30522, 768, padding_idx=0)
      (position_embeddings): Embedding(512, 768)
      (token_type_embeddings): Embedding(2, 768)
      (LayerNorm): LayerNorm((768,), eps=1e-12, elementwise_affine=True)
      (dropout): Dropout(p=0.1, inplace=False)
    )
    (encoder): BertEncoder(
      (layer): ModuleList(
        (0-11): 12 x BertLayer(
          (attention): BertAttention(
            (self): BertSdpaSelfAttention(
              (query): Linear(in_features=768, out_features=768, bias=True)
              (key): Linear(in_features=768, out_features=768, bias=True)
              (value): Linear(in_features=768, out_features=768, bias=True)
              (dropout): Dropout(p=0.1, inplace=False)
            )
            (output): BertSelfOutput(
              (dense): Linear(in_features=768, out_features=768, bias=True)
              (LayerNorm): LayerNorm((768,), eps=1e-12, elementwise_affine=True)
              (dropout): Dropout(p=0.1, inplace=False)
            )
          )
          (intermediate): BertIntermediate(
            (dense): Linear(in_features=768, out_features=3072, bias=True)
            (intermediate_act_fn): GELUActivation()
          )
          (output): BertOutput(
            (dense): Linear(in_features=3072, out_features=768, bias=True)
            (LayerNorm): LayerNorm((768,), eps=1e-12, elementwise_affine=True)
            (dropout): Dropout(p=0.1, inplace=False)
          )
        )
      )
    )
  )
  (qa_outputs): Linear(in_features=768, out_features=2, bias=True)
)

01/31/2025 09:13:10 - WARNING - fms_mo.fx.dynamo_utils - No bmm and matmul are found. Likely SDPA is enabled. Will patch nothing.
01/31/2025 09:13:28 - INFO - fms_mo.prep - Please provide a valid quantized checkpoint or run calibration for best results.
01/31/2025 09:13:28 - INFO - fms_mo.prep - --- Quantized model --- 
BertForQuestionAnswering(
  (bert): BertModel(
    (embeddings): BertEmbeddings(
      (word_embeddings): Embedding(30522, 768, padding_idx=0)
      (position_embeddings): Embedding(512, 768)
      (token_type_embeddings): Embedding(2, 768)
      (LayerNorm): LayerNorm((768,), eps=1e-12, elementwise_affine=True)
      (dropout): Dropout(p=0.1, inplace=False)
    )
    (encoder): BertEncoder(
      (layer): ModuleList(
        (0-10): 11 x BertLayer(
          (attention): BertAttention(
            (self): BertSdpaSelfAttention(
              (query): QLinear(768,768, Nbits_W,A=32,32,QntzerW,A=)
              (key): QLinear(768,768, Nbits_W,A=32,32,QntzerW,A=)
              (value): QLinear(768,768, Nbits_W,A=32,32,QntzerW,A=)
              (dropout): Dropout(p=0.1, inplace=False)
            )
            (output): BertSelfOutput(
              (dense): QLinear(768,768, Nbits_W,A=32,32,QntzerW,A=)
              (LayerNorm): LayerNorm((768,), eps=1e-12, elementwise_affine=True)
              (dropout): Dropout(p=0.1, inplace=False)
            )
          )
          (intermediate): BertIntermediate(
            (dense): QLinear(768,3072, Nbits_W,A=32,32,QntzerW,A=)
            (intermediate_act_fn): GELUActivation()
          )
          (output): BertOutput(
            (dense): QLinear(3072,768, Nbits_W,A=32,32,QntzerW,A=)
            (LayerNorm): LayerNorm((768,), eps=1e-12, elementwise_affine=True)
            (dropout): Dropout(p=0.1, inplace=False)
          )
        )
        (11): BertLayer(
          (attention): BertAttention(
            (self): BertSdpaSelfAttention(
              (query): QLinear(768,768, Nbits_W,A=32,32,QntzerW,A=)
              (key): QLinear(768,768, Nbits_W,A=32,32,QntzerW,A=)
              (value): QLinear(768,768, Nbits_W,A=32,32,QntzerW,A=)
              (dropout): Dropout(p=0.1, inplace=False)
            )
            (output): BertSelfOutput(
              (dense): QLinear(768,768, Nbits_W,A=32,32,QntzerW,A=)
              (LayerNorm): LayerNorm((768,), eps=1e-12, elementwise_affine=True)
              (dropout): Dropout(p=0.1, inplace=False)
            )
          )
          (intermediate): BertIntermediate(
            (dense): QLinear(768,3072, Nbits_W,A=32,32,QntzerW,A=)
            (intermediate_act_fn): GELUActivation()
          )
          (output): BertOutput(
            (dense): Linear(in_features=3072, out_features=768, bias=True)
            (LayerNorm): LayerNorm((768,), eps=1e-12, elementwise_affine=True)
            (dropout): Dropout(p=0.1, inplace=False)
          )
        )
      )
    )
  )
  (qa_outputs): QLinear(768,2, Nbits_W,A=32,32,QntzerW,A=)
)

01/31/2025 09:13:28 - INFO - fms_mo.custom_ext_kernels.utils - Found CUTLASS include path under /home/cliu22/cutlass.
01/31/2025 09:13:29 - INFO - fms_mo.custom_ext_kernels.utils - A few CUTLASS gemm functions have been loaded and registered to torch.ops.cutlass_gemm.
…
